using cuda device gpu:0
Saving into directory ./output/1605002717
Creating new experiment at ./output/1605002717
original vocab 36706; pruned to 11004
Number of sentences dropped from ./data/train.txt: 270949 out of 714667 total
Number of sentences dropped from ./data/test.txt: 5481 out of 13323 total
Number of sentences dropped from ./data/classifier/test.txt: 8288 out of 9824 total
LSTM(100, 300, batch_first=True)
Loaded data and target classifiers!
Vocabulary Size: 11004
Seq2SeqCAE(
  (embedding): Embedding(11004, 300)
  (embedding_decoder): Embedding(11004, 300)
  (encoder): Sequential(
    (layer-1): Conv1d(300, 500, kernel_size=(3,), stride=(1,))
    (bn-1): BatchNorm1d(500, eps=1e-05, momentum=0.1, affine=True, track_running_stats=True)
    (activation-1): LeakyReLU(negative_slope=0.2, inplace=True)
    (layer-2): Conv1d(500, 700, kernel_size=(3,), stride=(2,))
    (bn-2): BatchNorm1d(700, eps=1e-05, momentum=0.1, affine=True, track_running_stats=True)
    (activation-2): LeakyReLU(negative_slope=0.2, inplace=True)
    (layer-3): Conv1d(700, 1000, kernel_size=(3,), stride=(2,))
    (bn-3): BatchNorm1d(1000, eps=1e-05, momentum=0.1, affine=True, track_running_stats=True)
    (activation-3): LeakyReLU(negative_slope=0.2, inplace=True)
  )
  (linear): Linear(in_features=1000, out_features=300, bias=True)
  (decoder): LSTM(600, 300, batch_first=True)
  (linear_dec): Linear(in_features=300, out_features=11004, bias=True)
)
MLP_I_AE(
  (layer1): Linear(in_features=300, out_features=300, bias=True)
  (bn1): BatchNorm1d(300, eps=1e-05, momentum=0.1, affine=True, track_running_stats=True)
  (activation1): ReLU()
  (layer2): Linear(in_features=300, out_features=300, bias=True)
  (bn2): BatchNorm1d(300, eps=1e-05, momentum=0.1, affine=True, track_running_stats=True)
  (activation2): ReLU()
  (layer7): Linear(in_features=300, out_features=100, bias=True)
  (linear_mu): Linear(in_features=100, out_features=100, bias=True)
  (linear_var): Linear(in_features=100, out_features=100, bias=True)
)
MLP_G(
  (layer1): Linear(in_features=100, out_features=300, bias=True)
  (bn1): BatchNorm1d(300, eps=1e-05, momentum=0.1, affine=True, track_running_stats=True)
  (activation1): ReLU()
  (layer2): Linear(in_features=300, out_features=300, bias=True)
  (bn2): BatchNorm1d(300, eps=1e-05, momentum=0.1, affine=True, track_running_stats=True)
  (activation2): ReLU()
  (layer7): Linear(in_features=300, out_features=300, bias=True)
)
MLP_D(
  (layer1): Linear(in_features=300, out_features=300, bias=True)
  (activation1): LeakyReLU(negative_slope=0.2)
  (layer2): Linear(in_features=300, out_features=300, bias=True)
  (bn2): BatchNorm1d(300, eps=1e-05, momentum=0.1, affine=True, track_running_stats=True)
  (activation2): LeakyReLU(negative_slope=0.2)
  (layer6): Linear(in_features=300, out_features=1, bias=True)
)
Training...
[1/15][99/13866] Loss_D: 0.00375389 (Loss_D_real: -0.00398867 Loss_D_fake: -0.00023478) Loss_G: 0.00005371 Loss_I: 0.02178392
[1/15][199/13866] Loss_D: 0.00364180 (Loss_D_real: -0.00387411 Loss_D_fake: -0.00023230) Loss_G: 0.00017098 Loss_I: 0.02105649
| epoch   1 |   200/13866 batches | ms/batch 76.80 | loss  4.62 | ppl   101.34 | acc     0.44
…
